…
2023-01-13 07:18:35,359 INFO: Dataset PairedImgPSFNpyDataset - syn_val_new_7 is created.
2023-01-13 07:18:35,359 INFO: Number of test images in syn_val_new_7: 360
2023-01-13 07:18:35,361 INFO: Dataset PairedImgPSFNpyDataset - syn_val_new_8 is created.
2023-01-13 07:18:35,361 INFO: Number of test images in syn_val_new_8: 360
2023-01-13 07:18:35,364 INFO: Dataset PairedImgPSFNpyDataset - syn_val_new_9 is created.
2023-01-13 07:18:35,364 INFO: Number of test images in syn_val_new_9: 360
2023-01-13 07:18:40,519 INFO: Network: DISCNet, with parameters: 3,804,617
2023-01-13 07:18:40,519 INFO: DISCNet(
  (conv_11): Sequential(
    (0): Conv2d(3, 32, kernel_size=(3, 3), stride=(1, 1), padding=(1, 1))
    (1): LeakyReLU(negative_slope=0.2, inplace=True)
  )
  (conv_12): ResBlock(
    (conv1): Conv2d(32, 32, kernel_size=(3, 3), stride=(1, 1), padding=(1, 1))
    (conv2): Conv2d(32, 32, kernel_size=(3, 3), stride=(1, 1), padding=(1, 1))
    (act): LeakyReLU(negative_slope=0.2, inplace=True)
  )
  (conv_13): ResBlock(
    (conv1): Conv2d(32, 32, kernel_size=(3, 3), stride=(1, 1), padding=(1, 1))
    (conv2): Conv2d(32, 32, kernel_size=(3, 3), stride=(1, 1), padding=(1, 1))
    (act): LeakyReLU(negative_slope=0.2, inplace=True)
  )
  (conv_21): Sequential(
    (0): Conv2d(32, 64, kernel_size=(3, 3), stride=(2, 2), padding=(1, 1))
    (1): LeakyReLU(negative_slope=0.2, inplace=True)
  )
  (conv_22): ResBlock(
    (conv1): Conv2d(64, 64, kernel_size=(3, 3), stride=(1, 1), padding=(1, 1))
    (conv2): Conv2d(64, 64, kernel_size=(3, 3), stride=(1, 1), padding=(1, 1))
    (act): LeakyReLU(negative_slope=0.2, inplace=True)
  )
  (conv_23): ResBlock(
    (conv1): Conv2d(64, 64, kernel_size=(3, 3), stride=(1, 1), padding=(1, 1))
    (conv2): Conv2d(64, 64, kernel_size=(3, 3), stride=(1, 1), padding=(1, 1))
    (act): LeakyReLU(negative_slope=0.2, inplace=True)
  )
  (conv_31): Sequential(
    (0): Conv2d(64, 128, kernel_size=(3, 3), stride=(2, 2), padding=(1, 1))
    (1): LeakyReLU(negative_slope=0.2, inplace=True)
  )
  (conv_32): ResBlock(
    (conv1): Conv2d(128, 128, kernel_size=(3, 3), stride=(1, 1), padding=(1, 1))
    (conv2): Conv2d(128, 128, kernel_size=(3, 3), stride=(1, 1), padding=(1, 1))
    (act): LeakyReLU(negative_slope=0.2, inplace=True)
  )
  (conv_33): ResBlock(
    (conv1): Conv2d(128, 128, kernel_size=(3, 3), stride=(1, 1), padding=(1, 1))
    (conv2): Conv2d(128, 128, kernel_size=(3, 3), stride=(1, 1), padding=(1, 1))
    (act): LeakyReLU(negative_slope=0.2, inplace=True)
  )
  (upconv_21): Sequential(
    (0): Conv2d(128, 256, kernel_size=(3, 3), stride=(1, 1), padding=(1, 1))
    (1): PixelShuffle(upscale_factor=2)
    (2): LeakyReLU(negative_slope=0.2, inplace=True)
  )
  (upconv_22): ResBlock(
    (conv1): Conv2d(64, 64, kernel_size=(3, 3), stride=(1, 1), padding=(1, 1))
    (conv2): Conv2d(64, 64, kernel_size=(3, 3), stride=(1, 1), padding=(1, 1))
    (act): LeakyReLU(negative_slope=0.2, inplace=True)
  )
  (upconv_23): ResBlock(
    (conv1): Conv2d(64, 64, kernel_size=(3, 3), stride=(1, 1), padding=(1, 1))
    (conv2): Conv2d(64, 64, kernel_size=(3, 3), stride=(1, 1), padding=(1, 1))
    (act): LeakyReLU(negative_slope=0.2, inplace=True)
  )
  (upconv_11): Sequential(
    (0): Conv2d(64, 128, kernel_size=(3, 3), stride=(1, 1), padding=(1, 1))
    (1): PixelShuffle(upscale_factor=2)
    (2): LeakyReLU(negative_slope=0.2, inplace=True)
  )
  (upconv_12): ResBlock(
    (conv1): Conv2d(32, 32, kernel_size=(3, 3), stride=(1, 1), padding=(1, 1))
    (conv2): Conv2d(32, 32, kernel_size=(3, 3), stride=(1, 1), padding=(1, 1))
    (act): LeakyReLU(negative_slope=0.2, inplace=True)
  )
  (upconv_13): ResBlock(
    (conv1): Conv2d(32, 32, kernel_size=(3, 3), stride=(1, 1), padding=(1, 1))
    (conv2): Conv2d(32, 32, kernel_size=(3, 3), stride=(1, 1), padding=(1, 1))
    (act): LeakyReLU(negative_slope=0.2, inplace=True)
  )
  (final_conv): Sequential(
    (0): Conv2d(32, 3, kernel_size=(3, 3), stride=(1, 1), padding=(1, 1))
    (1): LeakyReLU(negative_slope=0.2, inplace=True)
  )
  (kconv_11): Sequential(
    (0): Conv2d(8, 32, kernel_size=(3, 3), stride=(1, 1), padding=(1, 1))
    (1): LeakyReLU(negative_slope=0.2, inplace=True)
  )
  (kconv_12): ResBlock(
    (conv1): Conv2d(32, 32, kernel_size=(3, 3), stride=(1, 1), padding=(1, 1))
    (conv2): Conv2d(32, 32, kernel_size=(3, 3), stride=(1, 1), padding=(1, 1))
    (act): LeakyReLU(negative_slope=0.2, inplace=True)
  )
  (kconv_13): ResBlock(
    (conv1): Conv2d(32, 32, kernel_size=(3, 3), stride=(1, 1), padding=(1, 1))
    (conv2): Conv2d(32, 32, kernel_size=(3, 3), stride=(1, 1), padding=(1, 1))
    (act): LeakyReLU(negative_slope=0.2, inplace=True)
  )
  (dynamic_kernel1): Sequential(
    (0): Sequential(
      (0): Conv2d(32, 32, kernel_size=(3, 3), stride=(1, 1), padding=(1, 1))
      (1): PReLU(num_parameters=1)
    )
    (1): ResBlock(
      (conv1): Conv2d(32, 32, kernel_size=(3, 3), stride=(1, 1), padding=(1, 1))
      (conv2): Conv2d(32, 32, kernel_size=(3, 3), stride=(1, 1), padding=(1, 1))
      (act): LeakyReLU(negative_slope=0.2, inplace=True)
    )
    (2): ResBlock(
      (conv1): Conv2d(32, 32, kernel_size=(3, 3), stride=(1, 1), padding=(1, 1))
      (conv2): Conv2d(32, 32, kernel_size=(3, 3), stride=(1, 1), padding=(1, 1))
      (act): LeakyReLU(negative_slope=0.2, inplace=True)
    )
    (3): Sequential(
      (0): Conv2d(32, 800, kernel_size=(1, 1), stride=(1, 1))
      (1): PReLU(num_parameters=1)
    )
  )
  (kconv_21): Sequential(
    (0): Conv2d(32, 64, kernel_size=(3, 3), stride=(2, 2), padding=(1, 1))
    (1): LeakyReLU(negative_slope=0.2, inplace=True)
  )
  (kconv_22): ResBlock(
    (conv1): Conv2d(64, 64, kernel_size=(3, 3), stride=(1, 1), padding=(1, 1))
    (conv2): Conv2d(64, 64, kernel_size=(3, 3), stride=(1, 1), padding=(1, 1))
    (act): LeakyReLU(negative_slope=0.2, inplace=True)
  )
  (kconv_23): ResBlock(
    (conv1): Conv2d(64, 64, kernel_size=(3, 3), stride=(1, 1), padding=(1, 1))
    (conv2): Conv2d(64, 64, kernel_size=(3, 3), stride=(1, 1), padding=(1, 1))
    (act): LeakyReLU(negative_slope=0.2, inplace=True)
  )
  (dynamic_kernel2): Sequential(
    (0): Sequential(
      (0): Conv2d(64, 64, kernel_size=(3, 3), stride=(1, 1), padding=(1, 1))
      (1): PReLU(num_parameters=1)
    )
    (1): ResBlock(
      (conv1): Conv2d(64, 64, kernel_size=(3, 3), stride=(1, 1), padding=(1, 1))
      (conv2): Conv2d(64, 64, kernel_size=(3, 3), stride=(1, 1), padding=(1, 1))
      (act): LeakyReLU(negative_slope=0.2, inplace=True)
    )
    (2): ResBlock(
      (conv1): Conv2d(64, 64, kernel_size=(3, 3), stride=(1, 1), padding=(1, 1))
      (conv2): Conv2d(64, 64, kernel_size=(3, 3), stride=(1, 1), padding=(1, 1))
      (act): LeakyReLU(negative_slope=0.2, inplace=True)
    )
    (3): Sequential(
      (0): Conv2d(64, 1600, kernel_size=(1, 1), stride=(1, 1))
      (1): PReLU(num_parameters=1)
    )
  )
  (kconv_31): Sequential(
    (0): Conv2d(64, 128, kernel_size=(3, 3), stride=(2, 2), padding=(1, 1))
    (1): LeakyReLU(negative_slope=0.2, inplace=True)
  )
  (kconv_32): ResBlock(
    (conv1): Conv2d(128, 128, kernel_size=(3, 3), stride=(1, 1), padding=(1, 1))
    (conv2): Conv2d(128, 128, kernel_size=(3, 3), stride=(1, 1), padding=(1, 1))
    (act): LeakyReLU(negative_slope=0.2, inplace=True)
  )
  (kconv_33): ResBlock(
    (conv1): Conv2d(128, 128, kernel_size=(3, 3), stride=(1, 1), padding=(1, 1))
    (conv2): Conv2d(128, 128, kernel_size=(3, 3), stride=(1, 1), padding=(1, 1))
    (act): LeakyReLU(negative_slope=0.2, inplace=True)
  )
  (dynamic_kernel): Sequential(
    (0): Sequential(
      (0): Conv2d(128, 128, kernel_size=(3, 3), stride=(1, 1), padding=(1, 1))
      (1): PReLU(num_parameters=1)
    )
    (1): ResBlock(
      (conv1): Conv2d(128, 128, kernel_size=(3, 3), stride=(1, 1), padding=(1, 1))
      (conv2): Conv2d(128, 128, kernel_size=(3, 3), stride=(1, 1), padding=(1, 1))
      (act): LeakyReLU(negative_slope=0.2, inplace=True)
    )
    (2): ResBlock(
      (conv1): Conv2d(128, 128, kernel_size=(3, 3), stride=(1, 1), padding=(1, 1))
      (conv2): Conv2d(128, 128, kernel_size=(3, 3), stride=(1, 1), padding=(1, 1))
      (act): LeakyReLU(negative_slope=0.2, inplace=True)
    )
    (3): Sequential(
      (0): Conv2d(128, 3200, kernel_size=(1, 1), stride=(1, 1))
      (1): PReLU(num_parameters=1)
    )
  )
)
2023-01-13 07:18:40,519 INFO: Loading DISCNet model from datasets/net_g_DISCNet-8c625482.pth.
2023-01-13 07:18:40,540 INFO: Model [PSFResModel] is created.
/home/n5/chanwoo/miniconda3/envs/DISCNet/lib/python3.7/site-packages/torchsummaryX-1.3.0-py3.7.egg/torchsummaryX/torchsummaryX.py:101: FutureWarning: Dropping of nuisance columns in DataFrame reductions (with 'numeric_only=None') is deprecated; in a future version this will raise TypeError.  Select only valid columns before calling the reduction.
…
